mnist/models/mnist_1.pt (torch, 408479 bytes, 4 tensors)

l1.weight f4 [128, 784]
0	0x3c75f18a	0.015011201
1	0xbc2177e0	-0.009855241
2	0x3d0921ae	0.033479385
3	0x3c297813	0.010343569
4	0xbb3af881	-0.0028529468
5	0x3c808017	0.015686078
6	0xbd066e3a	-0.032819964
7	0x3cd76fb5	0.026298383
8	0xbc94b2be	-0.018151637
9	0xbc5e2d41	-0.013560594
10	0xbc93689a	-0.017994214
11	0xbcb38d61	-0.021918
12	0xbcea6e71	-0.028617116
13	0xbbe4cb01	-0.0069822078
14	0x3d0ab055	0.03385957
15	0x3ba3996e	0.0049926555
16	0x3c8cafb0	0.017173618
17	0xbc0f7af3	-0.008757341
18	0x3cbe6443	0.023241168
19	0x3d0b64b6	0.034031592
20	0x3d0cea73	0.034403276
21	0xbba9314a	-0.0051633464
22	0xbc03c2aa	-0.008042017
23	0xbcf56cf5	-0.029959181
24	0x3cdbf3c8	0.026849642
25	0x3d0b3a07	0.033990886
26	0x3c7c7da1	0.015410812
27	0xbca0f2d0	-0.019647032
28	0x3c11650e	0.008874191
29	0x3d0f723a	0.035021044
30	0xbcad91f1	-0.021187754
31	0xbcbcdeb3	-0.02305541
32	0xbc3a1fee	-0.011360152
33	0xbd246336	-0.040133677
34	0xbb03a26a	-0.002008582
35	0xbd737203	-0.059434902
36	0xbc6108b8	-0.013734989
37	0xbbf9f784	-0.007628383
38	0x3d00ec84	0.03147556
39	0xbc95d473	-0.01828978
40	0x3d053b26	0.03252711
41	0x3ca06128	0.019577578
42	0x3c04c922	0.008104594
43	0xbc801a46	-0.015637528
44	0xbc97c7f4	-0.018527962
45	0xbd3cf45d	-0.04613148
46	0xbd0d86fc	-0.03455256
47	0xbd003223	-0.031297814
48	0x3d0f3a9c	0.034968004
49	0x3cedc518	0.029024646
50	0xbb04494a	-0.0020185285
51	0xbcf18aa8	-0.029485062
52	0x3cb2d80a	0.021831531
53	0xbcf78a81	-0.030217411
54	0xbba4500a	-0.005014424
55	0x3c017785	0.007902031
56	0xbcf82a35	-0.030293563
57	0x3c8db610	0.017298728
58	0xbd0b1777	-0.033957925
59	0x3c3d552a	0.011555949
60	0xbc3bb25c	-0.011456098
61	0xbd465da4	-0.048429146
62	0xbd3c6e03	-0.046003353
63	0xbb9ed11d	-0.0048467056
64	0xbd37f48a	-0.044910945
65	0xbcb3d3a7	-0.02195151
66	0xbb25df46	-0.0025310083
67	0xbcb744bb	-0.02237164
68	0x3ccc66bb	0.02495133
69	0x3cb387e8	0.021915391
70	0xbd0ff406	-0.03514483
71	0xbc828d61	-0.015936555
72	0xbd8d5380	-0.06900692
73	0xbd5b28cd	-0.053505708
74	0x3e43ec4c	0.19133109
75	0x3dcd0d33	0.10012283
76	0x3de5c6db	0.11219569
77	0x3e2782c1	0.16358472
78	0x3e2560e8	0.16150248
79	0xbc22b036	-0.009929707
80	0x3c4fd247	0.012684411
81	0xbc9db077	-0.019249184
82	0x3cede1ee	0.029038396
83	0x3ccf7695	0.025325099
84	0xbc29865c	-0.010346975
85	0x3c641ee5	0.013923381
86	0xbca32995	-0.019917289
87	0x3c18746a	0.009305099
88	0xbc884eda	-0.016639162
89	0x3c5f62bf	0.013634383
90	0x3cbf109d	0.023323352
91	0x3c91a2ab	0.017777761
92	0xbcd96ba5	-0.026540587
93	0xbd1a3dbb	-0.037656527
94	0x3c485cf8	0.012229197
95	0xbcc04523	-0.023470467
96	0xbdd8b6d6	-0.10581748
97	0xbd8e4150	-0.06946051
98	0xbdbf89b7	-0.09352439
99	0xbda18cc5	-0.07888178
100	0xbd766d61	-0.060162906
101	0xbcb1c7dd	-0.021701748
102	0xbcd874fc	-0.02642297
103	0x3d4ec3d3	0.05047972
104	0x3e764cbe	0.24052712
105	0x3e741a2f	0.23838113
106	0x3e7be7ed	0.24600191
107	0x3d5051b8	0.050859183
108	0x3dacd865	0.084397115
109	0x3daea0ab	0.08526739
110	0x3d097bac	0.03356521
111	0x3c27e95c	0.010248508
112	0xbcf700b3	-0.0301517
113	0x3ca0ec3a	0.019643892
114	0x3c26de2e	0.010184808
115	0x3c0155c0	0.00789398
116	0xba9fdfdc	-0.0012197453
117	0xbd05c104	-0.032654777
118	0x3cc37b58	0.023862526
119	0x3b60ec7b	0.003432064
120	0x3cd006e3	0.025393909
121	0x3ccc8d93	0.024969852
122	0xbce63c72	-0.028104994
123	0xbda6d7f2	-0.08146657
124	0xbddc16d6	-0.10746543
125	0xbdef3108	-0.11679274
126	0xbdfa6e84	-0.122281104
127	0xbdbde3fe	-0.09272002
128	0xbd815596	-0.06315152
129	0xbd65028b	-0.05591063
130	0x3bba471b	0.005684746
131	0x3d8ca726	0.068678185
132	0x3e4314b9	0.19050874
133	0x3e3d7a0b	0.18503587
134	0x3df23448	0.11826378
135	0x3d9025cb	0.070384584
136	0x3d7c06bd	0.061529864
137	0xbca4478b	-0.020053646
138	0xbd0c4bb3	-0.03425188
139	0x3b30c0ee	0.0026970464
140	0x3bbca81c	0.005757345
141	0xbc20efbc	-0.009822782
142	0xbcf3f9e1	-0.029782237
143	0xbcc7760a	-0.024348278
144	0x3aa87000	0.0012850761
145	0xbcd38534	-0.025820352
146	0xbd63768b	-0.055532973
147	0x3a9397a2	0.00112604
148	0x3ca48e02	0.020087246
149	0xbd8c2c3f	-0.06844377
150	0xbde33a23	-0.11095073
151	0xbd91dd91	-0.071223386
152	0xbdb2a744	-0.0872331
153	0xbd3fe4e3	-0.046849143
154	0xbdacdd64	-0.084406644
155	0xbdeeb26d	-0.11655126
156	0xbd0251f4	-0.031816438
157	0xbd0ccd99	-0.03437576
158	0x3cef529c	0.029214196
159	0x3ddeca79	0.10878462
160	0x3e437246	0.1908656
161	0x3e4036a1	0.1877084
162	0x3de9bc3c	0.11412856
163	0x3aa055d8	0.0012232615
164	0xbcd2f050	-0.025749356
165	0xbd01456d	-0.03156035
166	0xbdb2118f	-0.08694755
167	0xbbe07b78	-0.006850656
168	0x3bae88c1	0.005326361
169	0xbd00e68e	-0.031469874
170	0xbcb0f0aa	-0.021599133
171	0x3c9d5cac	0.019209228
172	0x39c5f7a4	0.00037759275
173	0xbbe2f435	-0.0069260844
174	0xbc912cd4	-0.017721571
175	0x3d49cc3c	0.04926704
176	0x3d1a0a3a	0.03760741
177	0xbd86b23f	-0.065769665
178	0xbdceb2f7	-0.100927286
179	0xbd86e5b8	-0.06586784
180	0xbd9e05cb	-0.07715949
181	0xbe12a985	-0.14322479
182	0xbdbbf907	-0.091783576
183	0xbcfc32c4	-0.030785926
184	0x3c584225	0.013199364
185	0xbcd6c44f	-0.026216654
186	0x3cdf5382	0.0272615
187	0x3e1028c1	0.14078046
188	0x3dec7624	0.11545971
189	0x3ddd66df	0.10810637
190	0x3e03bda2	0.12865308
191	0x3d4bd030	0.04975909
192	0x3c756713	0.014978188
193	0x3d0045af	0.031316455
194	0xbd0a2243	-0.03372408
195	0xbd4fa190	-0.050691187
196	0x3cf2e451	0.029649885
197	0x3bb3041c	0.0054631364
198	0xbcb3d493	-0.02195195
199	0x3c7d4552	0.015458422
200	0xbd188bea	-0.037242807
201	0x3c9a2689	0.018817203
202	0x3be150b9	0.006876078
203	0xbc6ffd10	-0.014647737
204	0xbd25a72f	-0.04044264
205	0xbc8caeb4	-0.017173149
206	0xbdf7a8ce	-0.12092744
207	0xbdfeb922	-0.12437655
208	0xbd78703f	-0.06065392
209	0xbd8e04ed	-0.06934533
210	0xbd7e8b99	-0.06214485
211	0xbd37dfab	-0.04489104
212	0xbd08c505	-0.033391017
213	0x3d1e9a9f	0.038721677
214	0x3da92bf3	0.08260336
215	0x3bd0c52c	0.006371161
216	0xbce399bf	-0.027783273
217	0xbd7af5ca	-0.06126956
218	0x3da81431	0.08206976
219	0x3d088817	0.03333291
220	0xbd92c39e	-0.07166217
221	0xbdbfc9aa	-0.09364636
222	0xbd43765e	-0.047720306
223	0xbcb0afb6	-0.02156816
224	0xbaeebe93	-0.0018214755
225	0xbd06b492	-0.03288705
226	0xbc797a92	-0.015226977
227	0xbc862e81	-0.016379597
228	0xbcba52f4	-0.022744633
229	0xbd202bf6	-0.039104424
230	0x3c25a658	0.01011046
231	0xbb734262	-0.0037118425
232	0xbcadcfbf	-0.021217225
233	0xbdd3a44d	-0.10334072
234	0xbdef7ab0	-0.11693323
235	0xbda35328	-0.07974845
236	0xbd0114d1	-0.031513993
237	0xbd2c4924	-0.04206194
238	0x3ca03792	0.019557748
239	0xbd4088f4	-0.04700561
240	0xbd7c5737	-0.061606612
241	0x3d43d1a6	0.04780736
242	0x3c2ab216	0.010418436
243	0xbd271f7f	-0.04080152
244	0xbdcff391	-0.101538785
245	0xbdd6b678	-0.10484022
246	0xbc17a277	-0.009255043
247	0x3d836f9c	0.06417772
248	0x3d6ee70a	0.058325805
249	0xbd0c84bb	-0.03430627
250	0xbd7b39d3	-0.061334442
251	0x3bbe8972	0.0058147246
252	0x3ce953b5	0.028482297
253	0x39ab7401	0.0003270209
254	0xbc2c3825	-0.010511433
255	0x3d210f52	0.03932125

l1.bias f4 [128]
0	0xbd5ad36a	-0.053424276
1	0xbcd78baf	-0.026311724
2	0xbd4b8a42	-0.0496924
3	0xbc817a95	-0.015805522
4	0xbc384359	-0.011246526
5	0x3d1173ab	0.0355107
6	0xbbb52691	-0.005528279
7	0x3b4a36e9	0.0030855483
8	0xbd21cc82	-0.039501674
9	0xbcdc2df9	-0.02687739
10	0xbd33efd3	-0.043929886
11	0x3d2e5dc9	0.04256991
12	0xbd171ac8	-0.036890775
13	0x3cc0fc21	0.023557724
14	0xbe13b279	-0.1442355
15	0xbb84225d	-0.0040324167
16	0xbd62a971	-0.055337373
17	0xbc76bf04	-0.01506019
18	0x3c2aa918	0.010416292
19	0xbd657d2b	-0.056027573
20	0xbd3ad22a	-0.045610584
21	0xbd103b2f	-0.035212692
22	0xbca289fe	-0.01984119
23	0x3994a16e	0.00028349034
24	0xbb7a222c	-0.003816734
25	0xbbaca5de	-0.0052687963
26	0xbd03f92e	-0.03222006
27	0xbd72e8e0	-0.05930412
28	0x3d05996f	0.03261703
29	0xbd8d5e29	-0.06902725
30	0x3c5cd84f	0.013479306
31	0x3bd4331b	0.006475819
32	0x3c5b7294	0.013394017
33	0x3d20dc18	0.039272398
34	0xbd2d633b	-0.04233096
35	0xbc82c52e	-0.015963163
36	0xbd61af23	-0.055098664
37	0xbba76223	-0.0051081344
38	0x3c7b21a3	0.015327844
39	0x3c965291	0.018349918
40	0xbc5c1797	-0.013433359
41	0xbd991818	-0.07475299
42	0xbc795b7a	-0.015219564
43	0x3cd83e24	0.026396818
44	0x3d074475	0.03302427
45	0xbd5eb040	-0.054367304
46	0xbd782b45	-0.06058814
47	0x3ccdec5b	0.025137117
48	0xbbf8700f	-0.007581718
49	0xbb9ad34b	-0.004724895
50	0xbca8939f	-0.020578204
51	0xbd30d0d0	-0.04316789
52	0x3ce75d27	0.02824266
53	0xbd834124	-0.06408909
54	0xbbdd89d2	-0.006760814
55	0xba9d195a	-0.0011985705
56	0xbd166083	-0.036713134
57	0x3c56ec99	0.013117933
58	0x3beb8de6	0.0071885465
59	0xbd2dbfce	-0.042419247
60	0x3b6886ac	0.0035480661
61	0xbbb80f0a	-0.005617027
62	0xbdb0addd	-0.08626912
63	0xbb13c31a	-0.002254671
64	0x3ac612e1	0.0015111828
65	0xbce1a8aa	-0.027546246
66	0xbcc1238a	-0.023576517
67	0xbcafe14e	-0.021469738
68	0xbcabb284	-0.020959146
69	0xbd251875	-0.040306527
70	0xbd48e9b2	-0.049050994
71	0xbd0cbac2	-0.034357794
72	0xbd001648	-0.03127125
73	0xbd5c9fdd	-0.053863395
74	0xbc977026	-0.018486094
75	0xbd630cc4	-0.055432096
76	0xbd1c6a81	-0.038187508
77	0xbbcdd195	-0.0062810876
78	0xbc945cb6	-0.018110614
79	0xbc4be3b4	-0.012444425
80	0xbc252cbb	-0.010081465
81	0xbc782d11	-0.015147463
82	0x3ca22072	0.019790862
83	0xbd1171a6	-0.035508774
84	0xbce68d10	-0.028143436
85	0xbcd98257	-0.026551409
86	0xbd87330d	-0.06601534
87	0xbc1da192	-0.009621041
88	0xbd3054da	-0.04304967
89	0xbc9b1c62	-0.018934432
90	0x3a45cae0	0.00075451843
91	0xbcfb0a5f	-0.030644594
92	0xbdcc6240	-0.09979677
93	0xbd6d757c	-0.05797337
94	0xbcca3875	-0.024685124
95	0xbd9d7762	-0.07688786
96	0xbc72d1ad	-0.014820498
97	0xbcd36df1	-0.02580926
98	0xbcfe1eaa	-0.031020481
99	0xbd4567d5	-0.048194725
100	0x3c793005	0.015209203
101	0x3be33b99	0.006934595
102	0xbd655b3c	-0.05599521
103	0x3ba54026	0.0050430475
104	0x3b0c086c	0.0021367325
105	0xbb602f26	-0.003420779
106	0xbcd85e64	-0.026412196
107	0xbba4074e	-0.0050057536
108	0xbc228c78	-0.009921186
109	0xbc05f3e3	-0.008175823
110	0x3b888426	0.004166144
111	0xbc4e87c2	-0.012605609
112	0xbdb10a54	-0.08644548
113	0x3c4dbe82	0.012557628
114	0xbdf4f541	-0.11960841
115	0xbb868f82	-0.004106463
116	0xbd3d01a4	-0.046144143
117	0x3bb8796d	0.0056297095
118	0xbd025480	-0.031818867
119	0x3c1a7466	0.009427166
120	0xbd05345d	-0.03252064
121	0xbce1bfe6	-0.027557325
122	0x3c3ccd9a	0.011523629
123	0xbda944c2	-0.08265068
124	0xbd1257e2	-0.035728343
125	0xbbbfd7d7	-0.0058545875
126	0xbd38928d	-0.045061637
127	0xbd4c81c6	-0.04992845

l2.weight f4 [10, 128]
0	0x3c81c5e1	0.015841426
1	0x3d103082	0.03520251
2	0x3d1fa317	0.038973894
3	0x3d0c02f3	0.0341825
4	0xbc78f14c	-0.015194248
5	0x3cf3f883	0.029781586
6	0xbdb60254	-0.08887163
7	0x3d3e0af9	0.046397183
8	0x3d0073ea	0.031360544
9	0xbd85fb18	-0.06542033
10	0xbdd6c9c1	-0.104877
11	0xbda4fa91	-0.08055604
12	0x3d1184dd	0.0355271
13	0xbdb277b4	-0.08714238
14	0x3cd576cf	0.026057629
15	0x3d614523	0.054997575
16	0xbd00cd50	-0.0314458
17	0xbd057e98	-0.032591432
18	0xbca31470	-0.019907206
19	0x3dccc0af	0.09997689
20	0x3d019118	0.031632513
21	0xbd2911ec	-0.041276857
22	0xbbf87b6c	-0.0075830724
23	0x3d8e6f75	0.069548525
24	0x3cb4d0bd	0.02207219
25	0xbc074701	-0.008256675
26	0x3ce7c273	0.028290963
27	0x3d3c07ee	0.045906
28	0xbdc8f232	-0.0981182
29	0x3d272610	0.040807784
30	0xbc534897	-0.012895725
31	0x3cb53ff7	0.022125227
32	0xbd640168	-0.055665404
33	0xbcc2e81e	-0.023792323
34	0x3d843537	0.064554624
35	0x3e1b1c09	0.15147413
36	0xbd1a1dd7	-0.037626114
37	0xbbb8b622	-0.0056369463
38	0x3d91db2a	0.0712188
39	0xbbd27b2b	-0.006423374
40	0x3d020e83	0.03175212
41	0xbdcdf559	-0.10056562
42	0xbd02f978	-0.031976193
43	0xbcba4636	-0.022738557
44	0x3afa13f1	0.0019079429
45	0x3d0adf24	0.03390421
46	0xbc8ecf7a	-0.017432917
47	0xbd91d6e7	-0.071210675
48	0x3acd2e6d	0.0015654095
49	0x3d9a95c0	0.07548094
50	0xbd4e30f3	-0.05033965
51	0xbc3fab6e	-0.011698587
52	0xbd64421c	-0.05572711
53	0x3d6c21c6	0.057649396
54	0x3d10018f	0.035157736
55	0x3d897062	0.067108884
56	0x3ccbb267	0.024865342
57	0x3cdf6c65	0.027273366
58	0x3d8169a1	0.06318975
59	0xbd751509	-0.059834514
60	0x3d46d395	0.048541624
61	0xbcc3c5d3	-0.02389804
62	0xbd9a0862	-0.0752113
63	0x3ada233b	0.001664258
64	0xbdba276e	-0.09089552
65	0xbd56d52d	-0.052449394
66	0x3d04b446	0.032398485
67	0x3d2ec5ac	0.042668983
68	0x3c05f040	0.008174956
69	0xbd8fee64	-0.07027891
70	0xbbc462f3	-0.005993241
71	0xbda7aea8	-0.0818761
72	0xbd026985	-0.031838913
73	0xbd45d2a1	-0.048296575
74	0xbd69d689	-0.057089362
75	0x3c9b12cb	0.01892986
76	0x3c2f2999	0.01069107
77	0xbc8d7e6e	-0.0172722
78	0xbdd359ce	-0.10319863
79	0x3d0603e6	0.03271856
80	0x3be6b53d	0.0070406483
81	0x3d2a2ac6	0.0415447
82	0x3cef3201	0.029198648
83	0xbd0656a5	-0.032797474
84	0xb9ba801e	-0.0003557214
85	0x3d2a5728	0.041587025
86	0x3ce5ca59	0.028050588
87	0xbdb26eb1	-0.08712519
88	0x3d8b5f8d	0.06805334
89	0x3d0b3edf	0.033995505
90	0x3cda1514	0.026621379
91	0x3c95a019	0.018264817
92	0xbda27cbd	-0.07933948
93	0x3c0f194c	0.008734059
94	0xbb896e16	-0.0041940315
95	0x3c2d288c	0.010568749
96	0xbdc73753	-0.09727349
97	0xbd8f7796	-0.07005231
98	0x3d2e3333	0.042529296
99	0x3cf290bb	0.029610028
100	0x3b81a495	0.0039563873
101	0x3d7426de	0.05960738
102	0xbc6d0301	-0.014466048
103	0x3b9db882	0.004813255
104	0xbd9fc8c6	-0.07801966
105	0xbd9e91c2	-0.07742645
106	0x3d5b7f83	0.0535884
107	0xbd05dd33	-0.032681655
108	0x3d4dfa84	0.05028774
109	0x3c52c7c6	0.0128650125
110	0x3d343952	0.043999977
111	0x3cb74f04	0.022376545
112	0x3bd15fd2	0.0063895965
113	0x3db01333	0.08597412
114	0xbcfdb9c6	-0.030972373
115	0x3c872001	0.016494753
116	0xbd94e510	-0.07270253
117	0xbdaaf623	-0.08347728
118	0x3dd3d483	0.10343268
119	0xbd1bfe77	-0.038084473
120	0xbcadd7a2	-0.021220986
121	0xbab4a658	-0.0013782484
122	0x3d3e5aff	0.0464735
123	0xbda440ad	-0.080201484
124	0x3d43213d	0.04763912
125	0x3b676171	0.0035305882
126	0x3d6965ac	0.056981727
127	0x3bb049c8	0.005379889
128	0xbdbad45c	-0.091225356
129	0xbce409a3	-0.027836626
130	0x3cf4ab76	0.029866915
131	0xbd23a637	-0.039953437
132	0xbd0fb4c7	-0.035084512
133	0x3c969c09	0.01838495
134	0xbd299750	-0.04140407
135	0xbd9266e2	-0.071485296
136	0xbd955a8c	-0.07292661
137	0x3d185212	0.037187643
138	0x3db1c3c6	0.08679919
139	0xbce5e92f	-0.028065292
140	0x3d10632b	0.035250824
141	0x3c3df71b	0.011594559
142	0xbce4f164	-0.027947135
143	0xbdf7011f	-0.12060761
144	0xbd2c968c	-0.04213576
145	0xbd7a5b87	-0.061122444
146	0xbdeeb92a	-0.11656411
147	0xbe08b546	-0.133504
148	0x3ce1d9c4	0.027569659
149	0xbd0c6c08	-0.034282714
150	0x3d7bc051	0.061462704
151	0xbcd90a11	-0.026494058
152	0x3d748a9c	0.0597025
153	0x3ca77c5c	0.020445041
154	0x3d81af3a	0.0633225
155	0x3d5730b5	0.052536685
156	0xbd052e89	-0.032515083
157	0xbd3d7c08	-0.046260864
158	0xbb2564d3	-0.0025237098
159	0x3af443d9	0.0018635943
160	0xbd864bcb	-0.06557425
161	0x3ca1a5ed	0.01973244
162	0x3d52a9e5	0.051431555
163	0xbc850ad9	-0.016240524
164	0x3dca0b43	0.09865429
165	0x3d84bc97	0.06481283
166	0x3c715306	0.014729267
167	0xbd7c4c46	-0.061596178
168	0x3cb04da7	0.021521403
169	0x3ce9e048	0.028549328
170	0xbda70c89	-0.08156688
171	0xbe048b8e	-0.12943861
172	0xbde448fc	-0.11146733
173	0xbd0c1a6f	-0.034204897
174	0x39efb057	0.00045717016
175	0x3cd70305	0.026246557
176	0xbc210383	-0.009827497
177	0xbc9640f7	-0.018341525
178	0xbd2d58c1	-0.04232097
179	0xbd5cf833	-0.05394764
180	0xbc17802e	-0.009246869
181	0x3cfd425e	0.030915435
182	0x3ce2f7b0	0.027705997
183	0xbdc47450	-0.09592497
184	0xbc82c68d	-0.015963817
185	0x3dad70f3	0.08468809
186	0x3dcb845c	0.09937355
187	0x3ba0f341	0.0049118106
188	0xbd792b10	-0.060832083
189	0x3b46e39a	0.0030348063
190	0xbd87f3f0	-0.06638324
191	0xbd6d6030	-0.05795306
192	0x3d85c2fc	0.06531331
193	0xbd760591	-0.060063902
194	0xbd551acc	-0.05202751
195	0xbda5cae4	-0.08095339
196	0x3c253ad7	0.010084829
197	0xbdaba2ff	-0.083806984
198	0xbb508afa	-0.0031821118
199	0x3d23141d	0.039814103
200	0xbd50781d	-0.0508958
201	0xbd22e990	-0.039773524
202	0x3c2cd0f2	0.010547863
203	0x3d563f9b	0.052306753
204	0xbc92ff9a	-0.017944146
205	0xbc8365cb	-0.01603975
206	0x3d2a4d03	0.04157735
207	0xbae5fce7	-0.0017546684
208	0xbdb3b6d4	-0.08775106
209	0x3b4fd2f4	0.0031711431
210	0xbd7b301e	-0.061325185
211	0x3c3ce1ed	0.011528474
212	0xbcea9372	-0.02863476
213	0x3d413ae4	0.047175303
214	0xbcb4cdc4	-0.022070773
215	0x3d455edc	0.048186168
216	0xbd0d703c	-0.034530863
217	0x3b3366bd	0.002737447
218	0xbd0471d4	-0.032335117
219	0x3d242f30	0.040084064
220	0xbc3222d8	-0.010872565
221	0xbc7833a6	-0.015149033
222	0xbb862931	-0.004094266
223	0xbc7af1db	-0.015316452
224	0xbd4210ab	-0.047379177
225	0x3d4dd78a	0.050254382
226	0x3daa0304	0.083013564
227	0xbcb7d490	-0.022440225
228	0xbdbb6113	-0.09149375
229	0xbd86725b	-0.0656478
230	0x3cd08d0e	0.025457885
231	0x3d5ef363	0.05443133
232	0x3c9c0a9a	0.019048024
233	0xbd5c1e17	-0.053739633
234	0xbdbb01b8	-0.09131187
235	0x3d3c206c	0.045929357
236	0x3ceefc61	0.029173078
237	0xbd32b7ee	-0.04363244
238	0xbc3f67fc	-0.011682507
239	0xbdb8613c	-0.09002921
240	0xbd0521fb	-0.03250311
241	0xbbfe55ee	-0.0077617085
242	0x3db999ec	0.090625614
243	0x3c2e36b4	0.010633159
244	0x3d6d3186	0.057908557
245	0x3dade334	0.08490601
246	0xbd6c2625	-0.057653565
247	0xbdab0b1d	-0.08351729
248	0x3d257040	0.040390253
249	0xbc4798ae	-0.012182398
250	0xbc080177	-0.0083011305
251	0x3cf6ae88	0.03011252
252	0x3d0815e0	0.033223987
253	0xbd0bc433	-0.034122657
254	0x3d2708fa	0.040780045
255	0x3d55fbdf	0.052242156

l2.bias f4 [10]
0	0x3dcc647f	0.099801056
1	0xbe4fde7d	-0.20299716
2	0xbd63a4e8	-0.05557719
3	0xbe5af2d6	-0.21381697
4	0xbde75990	-0.112963796
5	0x3dd42e59	0.103604026
6	0xbdee017d	-0.116213776
7	0xbe5f2438	-0.2179116
8	0x3eb0b226	0.34510916
9	0xbcd2a62b	-0.025714
