mnist/models/mnist_1.pt (torch, 408912 bytes, 4 tensors)

l1.weight f4 [128, 784]
00000000: 40c1 473c 5b5d 083d 305a 4a3c 8e1b 0dbd
00000010: 0030 a839 74f2 163c a017 963c 6423 04bd
00000020: 105b 783b f8d4 d93c f042 c73c 5aba 88bc
00000030: 7816 723c e2fb e83c 18b2 623c 5a94 febc
00000040: ce7a d83c 5cf2 02bc 65b8 8ebc 00b2 d03b
00000050: 37e2 0c3d f246 e63c 2db3 04bd fae8 0bbd
00000060: 5daa 0e3d 98d1 6f3c 06e1 5bbc b090 2dbb
00000070: 107b 1a3c c036 c3ba 6d9c 06bd 3caa c93c
00000080: aae2 45bc 8af7 a8bc 7c7a 41bc f8a7 eabb
00000090: eefc e0bc c55f 743b 975f 3f3c 8aaf ca3c
000000a0: 2046 6cbb 4707 0fbd e700 92bc ef3b 003d
000000b0: 784b b23b 7c17 d13c a8b3 82bb cab5 00bd
000000c0: 4e1a dd3c f823 693c 94e7 e8bb 745c 193c
000000d0: a0dc 8fbc be62 923c c33b cbbc bcef e1bc
000000e0: 9c38 4c3c 0075 28bb 7939 023d d030 59bb
000000f0: 8395 c7bc 081a ce3c 1c78 aebc c6e7 17bc
00000100: ab1c f4bc 8416 d1bc 3de1 923b 3b4d 033d
00000110: cace b1bc a10d 683c 4009 a1bc 2077 82bb
00000120: 50ca 1d3c 2740 38bc 3d91 0d3d 6069 e93b
00000130: e80b bb3b b225 fb3c 5825 b83c 2065 66bb
00000140: 4573 eabc 9cc8 3e3c 7d71 0c3d 1089 cf3c
00000150: c04b d73a b8e9 5b3c ca51 a63c 2617 c33c
00000160: da4c d1bc b7e4 663b 2463 c0bc bf0c 0abd
00000170: 1d85 3bbd 9540 09bd f552 b2bc 2f7f ce3c
00000180: 6ade 70bc 047f 24bd 13e9 0a3c 9bf1 b93c
00000190: 0687 96bc 7b5d 133c 9b56 b53b 415f af3c
000001a0: 88d0 19bb 2047 c8ba a022 66bb be37 f7bc
000001b0: cee7 0abd 4e26 e43c 086b c3bb 6a79 b03c
000001c0: cc96 bd3c ca9f 35bc 4353 d0bc fb9a 2dbc
000001d0: 6b2a 51bc 2c83 b43c 3ce0 0d3b d90a 903b
000001e0: d2f4 0abd 3377 1138 16e7 d2bb c644 1ebd
000001f0: c13d fcbc 84cf 07bd adbe 823c 49fd 22bd
00000200: d5d3 e3bc 2823 9bbc 91f6 6a3c 33d5 98bc
00000210: 4c94 16bb 48fd dbbb 1d75 6c3c b65e e63c
00000220: 77dc 9c3b 1a03 e1bc 8a9d a03c a436 e9bb
00000230: a361 d8bc 263d c63c fbff df3b cf07 653d
00000240: da76 863b 251c eabc 3e63 06bd 9f66 1bbc
00000250: ce5d 8b3c fb97 bf3c db23 a53c da1a c63c
00000260: 9657 c83c 48c1 1fbd 2530 10bd 65da 903b
00000270: c34a 0ebd 8f0f cc3b 02b6 13bd 9750 87bc
00000280: c183 b43b ca4b d93c 96b3 c4bb a5f2 10bd
00000290: 37e0 63bc 9672 fe3c 18ba 3e3c c8c2 c73b
000002a0: ca0e e2bc 23c3 f1bc 595e 8f3c 1b6c 443d
000002b0: a39c b1bc da06 483c 7d24 37bd 1ab1 edbc
000002c0: 1173 7dbc 65cf 8b3c ca67 dc37 52af 8dbc
000002d0: 9aac bf3c b39b e4bb 7a7f 653b 1f4b 0cbd
000002e0: d940 edbc 4f01 cf3c 8561 ab3b ea4d 62bc
000002f0: acd4 be3b 5067 29bc c974 c5bb 19c7 edbc
00000300: 6df6 92bc 005a 2f3b be33 ea3c 661b d23c
00000310: 47ce 013d 7a7a 423d 9485 0f3d 869e 2c3d
00000320: be2e 193d 0fb3 963c 7b57 ac3c 0c51 2c3d
00000330: b159 bdbc 1d28 e63b a110 b6bc b942 19bd
00000340: df82 dc3c d59d f8bb c46d b7bc d018 363c
00000350: 63f5 19bc 0931 bdbc 5028 1bbd 0f7c d7bc
00000360: 1b09 20bc ad66 38bd d96f c9bc 6a91 14bd
00000370: 3ada 863c f13d 17bd de7b b93c 38a8 283c
00000380: f0da 8b3c 9118 a0bc cc65 d53c 9c78 543c
00000390: 791c 453c 4cd9 ae3c 1d29 183d ee06 613c
000003a0: 861d e43c f859 253c 9122 f8bc 9a23 7abc
000003b0: 6193 a0bb eb23 bebc 35f3 a33c 5202 c43c
000003c0: c6a0 d13b 4c19 9d3c 7b33 073d b7c9 063d
000003d0: 813e eb3c 564b 9b3b 5bd8 113d d559 9fbc
000003e0: 0bdf dc3c dc1a 1dbd 7fd6 1abd 15ce 03bd
000003f0: 69cb 2ebc 58b7 c03c 2e7b 9dbb c842 ffbc
0.0121920705 0.033292156 0.012350604 -0.034450106 0.0003207922 0.009213079 0.018321812 -0.032260314
0.0037896074 0.02659081 0.02432391 -0.016690422 0.014775865 0.02844042 0.013836406 -0.031076599
0.026425745 -0.007992353 -0.01742191 0.0063688755 0.034395423 0.028110001 -0.032397438 -0.03415773
0.03483044 0.014637373 -0.013420349 -0.0026483946 0.009428754 -0.0014893636 -0.032864023 0.024617307
-0.012077967 -0.020625848 -0.011808988 -0.0071611367 -0.027464356 0.0037288528 0.011680505 0.024741907
-0.003605254 -0.03491905 -0.017822696 0.031307157 0.0054411255 0.025523894 -0.003988702 -0.031423368
0.026990082 0.014229767 -0.0071076844 0.009360421 -0.017561257 0.01786935 -0.02480877 -0.027580135
0.012464669 -0.0025704503 0.03179309 -0.0033140667 -0.024363285 0.025158897 -0.021297507 -0.009271568
-0.029798826 -0.025523432 0.004482417 0.032056075 -0.02170505 0.014163406 -0.019657731 -0.003981486
0.009630755 -0.011245764 0.03456234 0.0071231574 0.0057082064 0.030657623 0.022478744 -0.003515549
-0.028619418 0.011644509 0.03428792 0.025333911 0.0016425774 0.013422422 0.020302672 0.023814749
-0.025549341 0.003523154 -0.023484774 -0.033703562 -0.045781244 -0.033508856 -0.021768073 0.02520713
-0.014701465 -0.040160194 0.008478421 0.022698214 -0.018374931 0.008994455 0.005534006 0.021407725
-0.0023470242 -0.0015279986 -0.0035115853 -0.030177947 -0.033912472 0.027850296 -0.005963687 0.02154227
0.023143195 -0.01108546 -0.025430327 -0.010596032 -0.012766461 0.022035204 0.0021648547 0.0043958244
-0.033924885 3.4681707e-05 -0.006436239 -0.038639806 -0.030791165 -0.033156887 0.015960062 -0.039792333
-0.02781097 -0.018937662 0.014341013 -0.018656349 -0.0022976575 -0.006713543 0.014432219 0.028121334
0.0047870236 -0.0274673 0.01960637 -0.0071171094 -0.026413744 0.02419908 0.006835935 0.05591565
0.0041035237 -0.028577873 -0.03280949 -0.009484916 0.017012503 0.0233879 0.020158699 0.024182726
0.024455827 -0.039002687 -0.035202164 0.004420566 -0.034739267 0.0062274407 -0.036062248 -0.01651792
0.0055088704 0.026525397 -0.0060028536 -0.035387654 -0.013908437 0.031060498 0.011641048 0.006096218
-0.027594943 -0.029511994 0.017501043 0.04795466 -0.021681136 0.012208665 -0.044712532 -0.029015113
-0.0154693285 0.017066667 2.6274374e-05 -0.017295513 0.023397733 -0.0069765686 0.003501861 -0.03425133
-0.028961586 0.025269179 0.005230131 -0.0138125215 0.0058236923 -0.010339573 -0.0060258848 -0.029025601
-0.01793977 0.0026756525 0.028589126 0.02564783 0.031690862 0.047480084 0.0350395 0.042143367
0.037398092 0.018395929 0.021037808 0.04206948 -0.023114057 0.007023825 -0.022224726 -0.037417147
0.026917873 -0.0075871744 -0.022391208 0.011114314 -0.009396884 -0.02309467 -0.037880242 -0.026304273
-0.009767796 -0.045019794 -0.024589466 -0.03627149 0.01646148 -0.036924306 0.022642072 0.010294013
0.017072171 -0.019542964 0.026049517 0.012968209 0.012030714 0.02134385 0.037148584 0.013734562
0.02784611 0.010092251 -0.03028992 -0.015267277 -0.0049003814 -0.023210486 0.020013431 0.023926888
0.0063973395 0.019177102 0.03300808 0.032907214 0.028716328 0.0047392054 0.035606723 -0.019452015
0.026961824 -0.038355693 -0.037802216 -0.032178957 -0.010668614 0.023524925 -0.004805944 -0.031159773

l1.bias f4 [128]
00000000: b9e6 b03c 813f c8bc bf92 b33c 5820 12bd
00000010: 3c8d 203c 0dc1 d33c b42e 883b 20e4 e9bc
00000020: 5f02 c0bc d8d5 e63c 048e 2e3b 9b14 44bc
00000030: 6131 3b3c 668f 25bd 7017 4f3a 6b42 ad3c
00000040: 6055 a93c 90da 09bc 57ec 2abd e224 433a
00000050: f063 06bd d973 283c efe1 bbba 096f 2abd
00000060: 1667 ed3c 9568 a5bc 4683 483c 0cd1 d9bc
00000070: 5c39 29bd 9368 b2ba af5c 783b 18a1 f13c
00000080: ea9c b3bc b962 9ebc 0b00 1fbd 3050 30bc
00000090: d579 983c 7480 a8bc 057a 803c 9894 12bd
000000a0: e1b1 dabb 7be3 8dbc 938c 83bc 9215 033d
000000b0: 65a5 ccbc bd42 153b 2c11 1cbd f41a ac3b
000000c0: f162 09bd 64c6 f2bc fe88 bd3b fbac f4bc
000000d0: d35b 703b 20d9 233c 545b 0ebb 3773 14bd
000000e0: 8dc5 483c 7155 0a3b 84cb 27ba 4f4d c6bb
000000f0: 704b 013b d3f5 d7bc 5993 32bd 0a8a 013c
00000100: 7cb1 0bbd 3176 223a f793 433b c6d6 24bd
00000110: d388 20bd 26f0 a83c 2299 bcbc b5df 30bc
00000120: 6215 733c 9e92 3ebc 0d64 8c3c 0d76 183c
00000130: ce45 ffbc 1861 01bc 2d2e 24bd 449f 2abd
00000140: 8316 f93c 8f52 97bc f5f8 1dbd 36e1 063d
00000150: 4c2f 5b3c 4c19 193c 2892 0f3c d27e d33c
00000160: da57 80bc d260 15bd e1e6 75bc 6df4 0dbd
00000170: f81f 15bd 9df2 a8bc a2c0 62bc c400 f03c
00000180: cf15 7f3c cf81 993c 95f2 05bc 0914 c7ba
00000190: 7393 d73c 2ec6 b43c fed3 0bbd a500 74ba
000001a0: 829f 2ebd 80df 3c3c d53a 9ebc f560 0ebd
000001b0: c4ac 2fbb ab19 b0bc 27d4 e9bc bdf8 22bd
000001c0: 3e6a 0dbd 5384 c8bc d7e8 e0b9 245d 4ebc
000001d0: 2b18 42bd b231 86bc 8a78 f43c 0a08 953c
000001e0: 9f2d 3d3c 2b39 b63a 66f4 aabc 1a29 2abd
000001f0: 06b4 dabc 582f 11bd a183 453c 0b39 1ebd
0.021594392 -0.024444344 0.02192056 -0.035675377 0.009799298 0.02584889 0.004155958 -0.028551161
-0.02343863 0.02817814 0.002663494 -0.011967803 0.011425347 -0.04041996 0.0007899916 0.021149835
0.020670593 -0.008413926 -0.041729297 0.00074441556 -0.03281015 0.0102815265 -0.0014334301 -0.041609798
0.02897982 -0.02019147 0.012238329 -0.02658894 -0.041314468 -0.0013611488 0.003789704 0.02949576
-0.021925408 -0.019334184 -0.0388184 -0.010761306 0.018612782 -0.020569064 0.015683183 -0.03578624
-0.006674037 -0.017320385 -0.016058242 0.032002993 -0.02498121 0.0022775375 -0.038102314 0.0052522365
-0.033541624 -0.029635616 0.005784153 -0.02986764 0.0036675825 0.010000497 -0.0021721916 -0.03624269
0.012254131 0.0021108056 -0.00064008706 -0.0060516964 0.0019728802 -0.026362335 -0.043597553 0.007906446
-0.03410481 0.00061974215 0.0029842833 -0.040243886 -0.039192986 0.020622324 -0.023022238 -0.010795523
0.014836641 -0.011631636 0.017137552 0.009305489 -0.031161215 -0.007896684 -0.0400831 -0.041655794
0.030406242 -0.018471984 -0.038567502 0.03292962 0.013377976 0.00934441 0.008762874 0.025817309
-0.01566689 -0.03646929 -0.015008659 -0.03465693 -0.03640744 -0.0206235 -0.013839873 0.02929724
0.015569164 0.018738655 -0.008175512 -0.0015188466 0.026315426 0.022067156 -0.03413772 -0.00093079574
-0.042632587 0.011527896 -0.019315163 -0.034760434 -0.0026805857 -0.021496614 -0.028543545 -0.039787997
-0.03452515 -0.02447716 -0.0004289809 -0.012595449 -0.04738633 -0.016381118 0.029842634 0.01819231
0.011546521 0.0013902535 -0.020868491 -0.041543104 -0.02669717 -0.03544554 0.012055309 -0.03862862

l2.weight f4 [10, 128]
00000000: 53d3 403d 8b60 04bd 5999 84bc a91a 2b3d
00000010: 4481 5d3d 8686 45bd 3b13 a03d 78f9 6a3c
00000020: 35cd 2fbc d17e bcbd bb37 22bd 12ac 413d
00000030: 0749 f3bc db69 84bd ad9d 6bbd 93f5 32bd
00000040: 3881 8ebd 9b67 c23c f3ba cf3b 3dd2 c73a
00000050: d145 9a3d 4a29 51bc 4506 2bbd 980c 333d
00000060: b78d 74bd bab0 a23d 640b 4ebb c740 703d
00000070: 128d 433d 4040 fe3b 2ad3 913d 7504 893d
00000080: 073f edbc 81a1 68bc 6a93 59bc c241 35bc
00000090: 591a 29bd f4f1 a23d 8d5e c2bb 90c5 853b
000000a0: 46af 03bd acb1 a5bd 1cf8 5cbd 879e 29bd
000000b0: c9b5 a2bd e130 86bb 7517 6abd 82a4 29bd
000000c0: 717f 833d 53ea 313d 3925 18bd 763e 193d
000000d0: 60c4 1abc 4405 573d 5b80 8ebd 9ee3 1cbd
000000e0: e426 833d 2909 ef3b 4327 adbd 25d1 693c
000000f0: 61dc 813b 297c c63c f27d b9bc b098 acbd
00000100: b03b 9f3c d9f8 003b 3bfb f63c 1ecd 773c
00000110: 61c1 ee3c 93cc 7e3d 9f5b a23c 30ce 3b3d
00000120: d1b2 69bd 30de 8d3c 0fcf 6d3d 38a2 8fbd
00000130: c12e 89bd 36e4 643d b103 fe3c 8dbe 253d
00000140: 6abc 303d acbd a73c 31c4 12bc fa71 823d
00000150: 1d89 143b 7ff2 8bbd 388f fbbb abef 943d
00000160: 4c5c 9cbb 1805 1bbc b21a fd3c 4cd0 b33b
00000170: 8d93 e83b d7ec 623d 57c7 59bd 131b 70bd
00000180: 447a 363d 1e22 fb3c 4550 983d 59fa 51bd
00000190: 5137 8bbc 0afd ec3a 7673 53bd 96eb 393d
000001a0: 4fac 2a3c aab4 893c 3333 4fbd f040 c03c
000001b0: 76bc 48bd e466 58bb 13d4 fabc f418 8f3b
000001c0: ef35 b53c 8146 a43c 4ae9 0e3d a257 263d
000001d0: c58e 0f3d e686 31bd 9290 3dbd 3e49 8b3c
000001e0: 43db eabc d858 7f3d 909e aebd e7c6 983c
000001f0: 7fc2 333d 3478 3a3d ba09 2b3d 2d31 23bd
00000200: e90a 9abd ab2d 89bc 5d93 573c 3eb8 be3b
00000210: 6b88 e43c d918 1b3c d9c5 893d 044e 093d
00000220: 49c3 bc3c d193 803d b82e 72bd 7027 8dbc
00000230: 58b5 1bbd edd0 2fbd b5df d23b 9691 5e3b
00000240: e541 a03d 1f6c 193d 4783 183c edce 713b
00000250: 72fd fc3c ce31 663d 2eb5 633d 53bc d4bc
00000260: ee72 8ebc ce99 8a3d 8512 32bb 6fe9 25bd
00000270: c9ce 9e3d d5cf 95bc 6dd0 703d f587 133d
00000280: 723c 9f3d 5639 72bd 1a9b 973c 65f4 93bd
00000290: 0b74 3fbd 8f86 013d 953b 3bbc 4101 9abd
000002a0: 3686 ccbc b6ca 1d3d 583d 753d 17bf 3f3d
000002b0: 9c91 2d3d 79d6 273d be66 0ebd eb71 8f3d
000002c0: 8086 25bd 513f 723c 7327 62bd fab1 86bb
000002d0: 812b 94bd 65db 643c 816b 4fbd 6917 c0bd
000002e0: 8e75 38bd 968a 283c 423e 7e3c 70a1 5cbd
000002f0: d0c6 843d d182 abbc 2efa 80bd 92c5 d13c
00000300: 409d b0bd 57f9 103d 5094 78bc 4100 0cbb
00000310: 35d3 923d bcd3 84bc 0b36 2dbd 725a a2bd
00000320: 50c7 a93c 2fdc 89bc ed11 d53a 1893 243c
00000330: c5d8 7fbd c0a4 e4bc 4467 f7bc cea9 3ebd
00000340: a967 99bd 42b2 393d 4426 71bd 2516 ca3b
00000350: 8675 a9bd 950b 983a 5996 a9bd 4f62 833d
00000360: 33c7 b2bd ae64 723d c98a 90bd 541c a6bd
00000370: c2b8 753a dd0c 34bd d967 763d 3331 6dbd
00000380: b785 55bc 7c88 a03c d280 1f3d 0780 823d
00000390: d035 4ebc 46ec c43d 7330 793d 5a26 423d
000003a0: 613b a53d 78ab b03c a44e 83bd 8752 133a
000003b0: 7b21 63bc c132 aa3b 8654 6d3d 1d86 84ba
000003c0: 9fde 1bbd bcf5 a03c ab51 1b3c 3fac 893c
000003d0: 8b6d 083d 5bd6 3b3d 7483 6f3d d4d7 6e3d
000003e0: 3907 40bc fe98 743c beff 51bd 7ff7 94bd
000003f0: 0184 14bd b31d 9dbd 0e22 aebd ec27 5abc
0.047076534 -0.032318633 -0.016186403 0.041773472 0.054078355 -0.048223995 0.07816168 0.014341705
-0.0107300775 -0.09203876 -0.03960393 0.04728324 -0.029697908 -0.06465503 -0.05752342 -0.04369123
-0.0695824 0.023731044 0.0063394248 0.0015245151 0.07532848 -0.012766192 -0.041754026 0.043713182
-0.059705462 0.07943864 -0.0031439895 0.058655526 0.047741957 0.007759124 0.071203545 0.06690303
-0.028960718 -0.014198662 -0.013279775 -0.011063041 -0.041284893 0.07956305 -0.0059316815 0.004082389
-0.032149576 -0.08090529 -0.053947553 -0.04141095 -0.07944829 -0.0040951823 -0.057151277 -0.041416653
0.06420792 0.04343636 -0.037144873 0.037413083 -0.0094462335 0.052495256 -0.069580756 -0.03830301
0.06403902 0.007294793 -0.08454754 0.014271055 0.003963039 0.024229126 -0.022643063 -0.0842756
0.01943764 0.0019679575 0.030149093 0.015124587 0.029144945 0.062206816 0.019819079 0.045850933
-0.0570553 0.017317861 0.058058795 -0.07013363 -0.06698371 0.0558817 0.03100762 0.040464927
0.043148436 0.020476185 -0.0089579085 0.063693956 0.0022664734 -0.06833362 -0.007676985 0.072722755
-0.004771745 -0.009461664 0.030896518 0.0054874774 0.0070976675 0.05540165 -0.05316862 -0.05861957
0.044550195 0.030655917 0.07437185 -0.05126414 -0.01699415 0.0018080783 -0.051623784 0.045390688
0.010417058 0.01680978 -0.050585937 0.023468465 -0.049007855 -0.0033020312 -0.030618703 0.0043669883
0.022120444 0.02005315 0.03489045 0.040610917 0.035048265 -0.04334154 -0.04628045 0.017002698
-0.028669005 0.062340587 -0.08526337 0.018649532 0.043886658 0.04552479 0.041757323 -0.03984182
-0.07521612 -0.016745409 0.013157693 0.005820303 0.02789708 0.009466373 0.067271896 0.033521667
0.023042338 0.06278194 -0.059126586 -0.01723072 -0.03801474 -0.042923857 0.0064353594 0.0033961288
0.078250684 0.037456628 0.009308643 0.003689702 0.03088257 0.05619984 0.05559271 -0.025968706
-0.017388787 0.06767617 -0.0027171683 -0.040505823 0.07754285 -0.018287579 0.05879252 0.03601833
0.07775201 -0.05913671 0.018506575 -0.07224349 -0.046741527 0.031622466 -0.01142778 -0.075197704
-0.02496634 0.0385234 0.059872955 0.046813097 0.042375192 0.04097602 -0.03476595 0.0700415
-0.040411472 0.014785604 -0.055213403 -0.004110572 -0.0723486 0.013968323 -0.050639633 -0.09379465
-0.045033984 0.010286948 0.015517773 -0.053864896 0.06483233 -0.020936402 -0.06297718 0.025606904
-0.08623743 0.03539404 -0.015172079 -0.0021362456 0.07169191 -0.016214244 -0.042287868 -0.07927407
0.020724922 -0.016828625 0.0016255953 0.0100448355 -0.062462587 -0.02791059 -0.030200608 -0.046548657
-0.07490475 0.045336016 -0.058874384 0.0061671906 -0.08274369 0.0011600131 -0.0828063 0.06415235
-0.087294005 0.059178047 -0.07057721 -0.08110872 0.00093735394 -0.04395758 0.06015763 -0.05790825
-0.013032368 0.01959633 0.038941212 0.063720755 -0.012586072 0.09615378 0.06083722 0.047399856
0.08067966 0.021566138 -0.06411484 0.00056199025 -0.013862963 0.0051940386 0.057941936 -0.001011077
-0.038054105 0.019648425 0.00947992 0.016805766 0.033307593 0.045858722 0.058474973 0.0583113
-0.011720472 0.014929054 -0.051269285 -0.07273769 -0.0362587 -0.0767168 -0.08502589 -0.013315182

l2.bias f4 [10]
00000000: 039b c1bc a8aa 973d fbc2 0f3d e42a 7c3c
00000010: 8820 993d b6f0 953d 3061 cb3c 8790 f0bc
00000020: ab0f 1abd f76e 58bd
-0.023633486 0.07405597 0.035098057 0.015391085 0.07476908 0.073213026 0.024826616 -0.029365791
-0.0376126 -0.0528402
